…
	No Negative Sampling
Wed 11 Dec 2024 08:46:25 INFO batch_size = [[1024]], shuffle = [True]

Wed 11 Dec 2024 08:46:27 INFO Build [ModelType.SEQUENTIAL] DataLoader for [evaluation] with format [InputType.POINTWISE]
Wed 11 Dec 2024 08:46:27 INFO Evaluation Setting:
	Group by user_id
	Ordering: {'strategy': 'by', 'field': ['timestamp'], 'ascending': True}
	Splitting: {'strategy': 'loo', 'leave_one_num': 2}
	Negative Sampling: {'strategy': 'full', 'distribution': 'uniform'}
Wed 11 Dec 2024 08:46:27 INFO batch_size = [[2048, 2048]], shuffle = [False]

Wed 11 Dec 2024 08:46:28 INFO LightSANs(
  (item_embedding): Embedding(25441, 64, padding_idx=0)
  (position_embedding): Embedding(150, 64)
  (trm_encoder): LightTransformerEncoder(
    (layer): ModuleList(
      (0-1): 2 x LightTransformerLayer(
        (multi_head_attention): LightMultiHeadAttention(
          (gate_mlp): Sequential(
            (0): Linear(in_features=1, out_features=20, bias=True)
            (1): Sigmoid()
          )
          (query): Linear(in_features=64, out_features=64, bias=True)
          (key): Linear(in_features=64, out_features=64, bias=True)
          (value): Linear(in_features=64, out_features=64, bias=True)
          (attpooling_key): ItemToInterestAggregation()
          (attpooling_value): ItemToInterestAggregation()
          (pos_q_linear): Linear(in_features=64, out_features=64, bias=True)
          (pos_k_linear): Linear(in_features=64, out_features=64, bias=True)
          (pos_ln): LayerNorm((64,), eps=1e-12, elementwise_affine=True)
          (attn_dropout): Dropout(p=0.2, inplace=False)
          (dense): Linear(in_features=64, out_features=64, bias=True)
          (LayerNorm): LayerNorm((64,), eps=1e-12, elementwise_affine=True)
          (out_dropout): Dropout(p=0.2, inplace=False)
        )
        (feed_forward): FeedForward(
          (dense_1): Linear(in_features=64, out_features=256, bias=True)
          (dense_2): Linear(in_features=256, out_features=64, bias=True)
          (LayerNorm): LayerNorm((64,), eps=1e-12, elementwise_affine=True)
          (dropout): Dropout(p=0.2, inplace=False)
        )
      )
    )
  )
  (LayerNorm): LayerNorm((64,), eps=1e-12, elementwise_affine=True)
  (dropout): Dropout(p=0.2, inplace=False)
  (loss_fct): CrossEntropyLoss()
)
Trainable parameters: 1760016
Wed 11 Dec 2024 08:50:20 INFO epoch 0 training [time: 231.60s, train loss: 4566.0927]
Wed 11 Dec 2024 08:50:23 INFO epoch 0 evaluating [time: 3.01s, valid_score: 0.025600]
Wed 11 Dec 2024 08:50:23 INFO valid result: 
recall@10 : 0.0719    mrr@10 : 0.0256    ndcg@10 : 0.0363    hit@10 : 0.0719    precision@10 : 0.0072    
…
