…
	No Negative Sampling
Mon 18 Nov 2024 19:54:31 INFO batch_size = [[1024]], shuffle = [True]

Mon 18 Nov 2024 19:54:33 INFO Build [ModelType.SEQUENTIAL] DataLoader for [evaluation] with format [InputType.POINTWISE]
Mon 18 Nov 2024 19:54:33 INFO Evaluation Setting:
	Group by user_id
	Ordering: {'strategy': 'by', 'field': ['timestamp'], 'ascending': True}
	Splitting: {'strategy': 'loo', 'leave_one_num': 2}
	Negative Sampling: {'strategy': 'full', 'distribution': 'uniform'}
Mon 18 Nov 2024 19:54:33 INFO batch_size = [[2048, 2048]], shuffle = [False]

Mon 18 Nov 2024 19:54:34 INFO LightSANs(
  (item_embedding): Embedding(3629, 64, padding_idx=0)
  (position_embedding): Embedding(200, 64)
  (trm_encoder): LightTransformerEncoder(
    (layer): ModuleList(
      (0-1): 2 x LightTransformerLayer(
        (multi_head_attention): LightMultiHeadAttention(
          (query): Linear(in_features=64, out_features=64, bias=True)
          (key): Linear(in_features=64, out_features=64, bias=True)
          (value): Linear(in_features=64, out_features=64, bias=True)
          (attpooling_key): ItemToInterestAggregation()
          (attpooling_value): ItemToInterestAggregation()
          (pos_q_linear): Linear(in_features=64, out_features=64, bias=True)
          (pos_k_linear): Linear(in_features=64, out_features=64, bias=True)
          (pos_ln): LayerNorm((64,), eps=1e-12, elementwise_affine=True)
          (attn_dropout): Dropout(p=0.2, inplace=False)
          (dense): Linear(in_features=64, out_features=64, bias=True)
          (LayerNorm): LayerNorm((64,), eps=1e-12, elementwise_affine=True)
          (out_dropout): Dropout(p=0.2, inplace=False)
        )
        (feed_forward): FeedForward(
          (dense_1): Linear(in_features=64, out_features=256, bias=True)
          (dense_2): Linear(in_features=256, out_features=64, bias=True)
          (LayerNorm): LayerNorm((64,), eps=1e-12, elementwise_affine=True)
          (dropout): Dropout(p=0.2, inplace=False)
        )
      )
    )
  )
  (LayerNorm): LayerNorm((64,), eps=1e-12, elementwise_affine=True)
  (dropout): Dropout(p=0.2, inplace=False)
  (loss_fct): CrossEntropyLoss()
)
Trainable parameters: 367168
Mon 18 Nov 2024 19:55:40 INFO epoch 0 training [time: 65.78s, train loss: 5278.0412]
Mon 18 Nov 2024 19:55:40 INFO epoch 0 evaluating [time: 0.25s, valid_score: 0.051700]
Mon 18 Nov 2024 19:55:40 INFO valid result: 
recall@10 : 0.1557    mrr@10 : 0.0517    ndcg@10 : 0.0757    hit@10 : 0.1557    precision@10 : 0.0156    
…
